…
Filter:   0%|          | 0/6190 [00:00<?, ? examples/s]Filter:  16%|█▌        | 1000/6190 [00:01<00:06, 771.26 examples/s]Filter:  32%|███▏      | 2000/6190 [00:02<00:05, 781.51 examples/s]Filter:  48%|████▊     | 3000/6190 [00:03<00:04, 791.43 examples/s]Filter:  65%|██████▍   | 4000/6190 [00:05<00:02, 795.45 examples/s]Filter:  81%|████████  | 5000/6190 [00:06<00:01, 788.44 examples/s]Filter:  97%|█████████▋| 6000/6190 [00:07<00:00, 793.43 examples/s]Filter: 100%|██████████| 6190/6190 [00:07<00:00, 795.20 examples/s]Filter: 100%|██████████| 6190/6190 [00:07<00:00, 791.12 examples/s]
LoRA Target Modules:  ['q_proj', 'v_proj']
LoRA model
GPTJForSequenceClassification(
  (transformer): GPTJModel(
    (wte): Embedding(50400, 4096)
    (drop): Dropout(p=0.0, inplace=False)
    (h): ModuleList(
      (0-27): 28 x GPTJBlock(
        (ln_1): LayerNorm((4096,), eps=1e-05, elementwise_affine=True)
        (attn): GPTJAttention(
          (attn_dropout): Dropout(p=0.0, inplace=False)
          (resid_dropout): Dropout(p=0.0, inplace=False)
          (k_proj): Linear(in_features=4096, out_features=4096, bias=False)
          (v_proj): LinearLayer_PSLoRA(
            (lora_A): Linear(in_features=4096, out_features=32, bias=False)
            (lora_B): Linear(in_features=32, out_features=4096, bias=False)
            (lora_dropout): Dropout(p=0.05, inplace=False)
          )
          (q_proj): LinearLayer_PSLoRA(
            (lora_A): Linear(in_features=4096, out_features=32, bias=False)
            (lora_B): Linear(in_features=32, out_features=4096, bias=False)
            (lora_dropout): Dropout(p=0.05, inplace=False)
          )
          (out_proj): Linear(in_features=4096, out_features=4096, bias=False)
        )
        (mlp): GPTJMLP(
          (fc_in): Linear(in_features=4096, out_features=16384, bias=True)
          (fc_out): Linear(in_features=16384, out_features=4096, bias=True)
          (act): NewGELUActivation()
          (dropout): Dropout(p=0.0, inplace=False)
        )
      )
    )
    (ln_f): LayerNorm((4096,), eps=1e-05, elementwise_affine=True)
  )
  (score): Linear(in_features=4096, out_features=1, bias=False)
)
dict_keys(['transformer.h.0.attn.k_proj.weight', 'transformer.h.0.attn.out_proj.weight', 'transformer.h.0.attn.q_proj.lora_A.weight', 'transformer.h.0.attn.q_proj.lora_B.weight', 'transformer.h.0.attn.q_proj.weight', 'transformer.h.0.attn.v_proj.lora_A.weight', 'transformer.h.0.attn.v_proj.lora_B.weight', 'transformer.h.0.attn.v_proj.weight', 'transf
…
