…
Map:   0%|          | 0/6190 [00:00<?, ? examples/s]Map:  16%|█▌        | 1000/6190 [00:04<00:25, 202.98 examples/s]Map:  32%|███▏      | 2000/6190 [00:09<00:20, 204.77 examples/s]Map:  48%|████▊     | 3000/6190 [00:14<00:15, 208.22 examples/s]Map:  65%|██████▍   | 4000/6190 [00:19<00:10, 209.48 examples/s]Map:  81%|████████  | 5000/6190 [00:24<00:05, 206.39 examples/s]Map:  97%|█████████▋| 6000/6190 [00:28<00:00, 208.03 examples/s]Map: 100%|██████████| 6190/6190 [00:29<00:00, 207.88 examples/s]Map: 100%|██████████| 6190/6190 [00:29<00:00, 207.37 examples/s]
LoRA Target Modules:  ['q_proj', 'v_proj']
LoRA model
GPTJForSequenceClassification(
  (transformer): GPTJModel(
    (wte): Embedding(50400, 4096)
    (drop): Dropout(p=0.0, inplace=False)
    (h): ModuleList(
      (0-27): 28 x GPTJBlock(
        (ln_1): LayerNorm((4096,), eps=1e-05, elementwise_affine=True)
        (attn): GPTJAttention(
          (attn_dropout): Dropout(p=0.0, inplace=False)
          (resid_dropout): Dropout(p=0.0, inplace=False)
          (k_proj): Linear(in_features=4096, out_features=4096, bias=False)
          (v_proj): LinearLayer_PSLoRA(
            (lora_B): Linear(in_features=32, out_features=4096, bias=False)
            (lora_dropout): Dropout(p=0.05, inplace=False)
          )
          (q_proj): LinearLayer_PSLoRA(
            (lora_B): Linear(in_features=32, out_features=4096, bias=False)
            (lora_dropout): Dropout(p=0.05, inplace=False)
          )
          (out_proj): Linear(in_features=4096, out_features=4096, bias=False)
        )
        (mlp): GPTJMLP(
          (fc_in): Linear(in_features=4096, out_features=16384, bias=True)
          (fc_out): Linear(in_features=16384, out_features=4096, bias=True)
          (act): NewGELUActivation()
          (dropout): Dropout(p=0.0, inplace=False)
        )
      )
    )
    (ln_f): LayerNorm((4096,), eps=1e-05, elementwise_affine=True)
  )
  (score): Linear(in_features=4096, out_features=1, bias=False)
)
<frozen importlib._bootstrap>:488: DeprecationWarning: Type google.protobuf.pyext._message.ScalarMapContainer uses PyType_Spec with a metaclass that has custom tp_new. This is deprecated and will no longer be allowed in Python 3.14.
<frozen importlib._bootstrap>:488: DeprecationWarning: Type google.protobuf.pyext._message.MessageMapContainer uses PyType_Spec with a metaclass that has custom tp_new. This is deprecated and will no longer be allowed in Python 3.14.
…
