…
    features: ['choice', 'worker', 'chosen', 'rejected', 'input_ids_chosen', 'attention_mask_chosen', 'input_ids_rejected', 'attention_mask_rejected', 'labeler_index'],
    num_rows: 26865
})
Eval Dataset:  Dataset({
    features: ['choice', 'worker', 'chosen', 'rejected', 'input_ids_chosen', 'attention_mask_chosen', 'input_ids_rejected', 'attention_mask_rejected', 'labeler_index'],
    num_rows: 6190
})
LoRA Target Modules:  ['q_proj', 'v_proj']
LoRA Type:  svd
Map:   0%|          | 0/26865 [00:00<?, ? examples/s]Map:   1%|▏         | 390/26865 [00:00<00:06, 3784.40 examples/s]Map:   3%|▎         | 864/26865 [00:00<00:05, 4334.91 examples/s]LoRA model
GPTJForSequenceClassification(
  (transformer): GPTJModel(
    (wte): Embedding(50400, 4096)
    (drop): Dropout(p=0.0, inplace=False)
    (h): ModuleList(
      (0-27): 28 x GPTJBlock(
        (ln_1): LayerNorm((4096,), eps=1e-05, elementwise_affine=True)
        (attn): GPTJAttention(
          (attn_dropout): Dropout(p=0.0, inplace=False)
          (resid_dropout): Dropout(p=0.0, inplace=False)
          (k_proj): Linear(in_features=4096, out_features=4096, bias=False)
          (v_proj): LinearLayer_PSLoRA(
            (lora_B): Linear(in_features=32, out_features=4096, bias=False)
            (lora_dropout): Dropout(p=0.05, inplace=False)
          )
          (q_proj): LinearLayer_PSLoRA(
            (lora_B): Linear(in_features=32, out_features=4096, bias=False)
            (lora_dropout): Dropout(p=0.05, inplace=False)
          )
          (out_proj): Linear(in_features=4096, out_features=4096, bias=False)
        )
        (mlp): GPTJMLP(
          (fc_in): Linear(in_features=4096, out_features=16384, bias=True)
          (fc_out): Linear(in_features=16384, out_features=4096, bias=True)
          (act): NewGELUActivation()
          (dropout): Dropout(p=0.0, inplace=False)
        )
      )
    )
    (ln_f): LayerNorm((4096,), eps=1e-05, elementwise_affine=True)
  )
  (score): Linear(in_features=4096, out_features=1, bias=False)
)
Map:   5%|▌         | 1471/26865 [00:00<00:07, 3605.62 examples/s]<frozen importlib._bootstrap>:488: DeprecationWarning: Type google.protobuf.pyext._message.ScalarMapContainer uses PyType_Spec with a metaclass that has custom tp_new. This is deprecated and will no longer be allowed in Python 3.14.
<frozen importlib._bootstrap>:488: DeprecationWarning: Type google.protobuf.pyext._message.MessageMapContainer uses PyType_Spec with a metaclass that has custom tp_new. This is deprecated and will no longer be allowed in Python 3.14.
…
